DRBN(
  (recur1): DRBN_BU(
    (SFENet1): Conv2d(6, 16, kernel_size=(3, 3), stride=(1, 1), padding=(1, 1))
    (SFENet2): Conv2d(16, 16, kernel_size=(3, 3), stride=(1, 1), padding=(1, 1))
    (RDBs): ModuleList(
      (0-1): 2 x RDB(
        (convs): Sequential(
          (0): RDB_Conv(
            (conv): Sequential(
              (0): Conv2d(16, 8, kernel_size=(3, 3), stride=(1, 1), padding=(1, 1))
              (1): ReLU()
            )
          )
          (1): RDB_Conv(
            (conv): Sequential(
              (0): Conv2d(24, 8, kernel_size=(3, 3), stride=(1, 1), padding=(1, 1))
              (1): ReLU()
            )
          )
          (2): RDB_Conv(
            (conv): Sequential(
              (0): Conv2d(32, 8, kernel_size=(3, 3), stride=(1, 1), padding=(1, 1))
              (1): ReLU()
            )
          )
          (3): RDB_Conv(
            (conv): Sequential(
              (0): Conv2d(40, 8, kernel_size=(3, 3), stride=(1, 1), padding=(1, 1))
              (1): ReLU()
            )
          )
        )
        (LFF): Conv2d(48, 16, kernel_size=(1, 1), stride=(1, 1))
      )
      (2-3): 2 x RDB(
        (convs): Sequential(
          (0): RDB_Conv(
            (conv): Sequential(
              (0): Conv2d(32, 16, kernel_size=(3, 3), stride=(1, 1), padding=(1, 1))
              (1): ReLU()
            )
          )
          (1): RDB_Conv(
            (conv): Sequential(
              (0): Conv2d(48, 16, kernel_size=(3, 3), stride=(1, 1), padding=(1, 1))
              (1): ReLU()
            )
          )
          (2): RDB_Conv(
            (conv): Sequential(
              (0): Conv2d(64, 16, kernel_size=(3, 3), stride=(1, 1), padding=(1, 1))
              (1): ReLU()
            )
          )
          (3): RDB_Conv(
            (conv): Sequential(
              (0): Conv2d(80, 16, kernel_size=(3, 3), stride=(1, 1), padding=(1, 1))
              (1): ReLU()
            )
          )
        )
        (LFF): Conv2d(96, 32, kernel_size=(1, 1), stride=(1, 1))
      )
      (4-5): 2 x RDB(
        (convs): Sequential(
          (0): RDB_Conv(
            (conv): Sequential(
              (0): Conv2d(16, 8, kernel_size=(3, 3), stride=(1, 1), padding=(1, 1))
              (1): ReLU()
            )
          )
          (1): RDB_Conv(
            (conv): Sequential(
              (0): Conv2d(24, 8, kernel_size=(3, 3), stride=(1, 1), padding=(1, 1))
              (1): ReLU()
            )
          )
          (2): RDB_Conv(
            (conv): Sequential(
              (0): Conv2d(32, 8, kernel_size=(3, 3), stride=(1, 1), padding=(1, 1))
              (1): ReLU()
            )
          )
          (3): RDB_Conv(
            (conv): Sequential(
              (0): Conv2d(40, 8, kernel_size=(3, 3), stride=(1, 1), padding=(1, 1))
              (1): ReLU()
            )
          )
        )
        (LFF): Conv2d(48, 16, kernel_size=(1, 1), stride=(1, 1))
      )
    )
    (UPNet): Sequential(
      (0): Conv2d(16, 16, kernel_size=(3, 3), stride=(1, 1), padding=(1, 1))
      (1): Conv2d(16, 3, kernel_size=(3, 3), stride=(1, 1), padding=(1, 1))
    )
    (UPNet2): Sequential(
      (0): Conv2d(16, 16, kernel_size=(3, 3), stride=(1, 1), padding=(1, 1))
      (1): Conv2d(16, 3, kernel_size=(3, 3), stride=(1, 1), padding=(1, 1))
    )
    (UPNet4): Sequential(
      (0): Conv2d(32, 16, kernel_size=(3, 3), stride=(1, 1), padding=(1, 1))
      (1): Conv2d(16, 3, kernel_size=(3, 3), stride=(1, 1), padding=(1, 1))
    )
    (Down1): Conv2d(16, 16, kernel_size=(3, 3), stride=(2, 2), padding=(1, 1))
    (Down2): Conv2d(16, 32, kernel_size=(3, 3), stride=(2, 2), padding=(1, 1))
    (Up1): ConvTranspose2d(16, 16, kernel_size=(4, 4), stride=(2, 2), padding=(1, 1))
    (Up2): ConvTranspose2d(32, 16, kernel_size=(4, 4), stride=(2, 2), padding=(1, 1))
    (Relu): ReLU()
    (Img_up): Upsample(scale_factor=2.0, mode='bilinear')
  )
  (recur2): DRBN_BU(
    (SFENet1): Conv2d(6, 16, kernel_size=(3, 3), stride=(1, 1), padding=(1, 1))
    (SFENet2): Conv2d(16, 16, kernel_size=(3, 3), stride=(1, 1), padding=(1, 1))
    (RDBs): ModuleList(
      (0-1): 2 x RDB(
        (convs): Sequential(
          (0): RDB_Conv(
            (conv): Sequential(
              (0): Conv2d(16, 8, kernel_size=(3, 3), stride=(1, 1), padding=(1, 1))
              (1): ReLU()
            )
          )
          (1): RDB_Conv(
            (conv): Sequential(
              (0): Conv2d(24, 8, kernel_size=(3, 3), stride=(1, 1), padding=(1, 1))
              (1): ReLU()
            )
          )
          (2): RDB_Conv(
            (conv): Sequential(
              (0): Conv2d(32, 8, kernel_size=(3, 3), stride=(1, 1), padding=(1, 1))
              (1): ReLU()
            )
          )
          (3): RDB_Conv(
            (conv): Sequential(
              (0): Conv2d(40, 8, kernel_size=(3, 3), stride=(1, 1), padding=(1, 1))
              (1): ReLU()
            )
          )
        )
        (LFF): Conv2d(48, 16, kernel_size=(1, 1), stride=(1, 1))
      )
      (2-3): 2 x RDB(
        (convs): Sequential(
          (0): RDB_Conv(
            (conv): Sequential(
              (0): Conv2d(32, 16, kernel_size=(3, 3), stride=(1, 1), padding=(1, 1))
              (1): ReLU()
            )
          )
          (1): RDB_Conv(
            (conv): Sequential(
              (0): Conv2d(48, 16, kernel_size=(3, 3), stride=(1, 1), padding=(1, 1))
              (1): ReLU()
            )
          )
          (2): RDB_Conv(
            (conv): Sequential(
              (0): Conv2d(64, 16, kernel_size=(3, 3), stride=(1, 1), padding=(1, 1))
              (1): ReLU()
            )
          )
          (3): RDB_Conv(
            (conv): Sequential(
              (0): Conv2d(80, 16, kernel_size=(3, 3), stride=(1, 1), padding=(1, 1))
              (1): ReLU()
            )
          )
        )
        (LFF): Conv2d(96, 32, kernel_size=(1, 1), stride=(1, 1))
      )
      (4-5): 2 x RDB(
        (convs): Sequential(
          (0): RDB_Conv(
            (conv): Sequential(
              (0): Conv2d(16, 8, kernel_size=(3, 3), stride=(1, 1), padding=(1, 1))
              (1): ReLU()
            )
          )
          (1): RDB_Conv(
            (conv): Sequential(
              (0): Conv2d(24, 8, kernel_size=(3, 3), stride=(1, 1), padding=(1, 1))
              (1): ReLU()
            )
          )
          (2): RDB_Conv(
            (conv): Sequential(
              (0): Conv2d(32, 8, kernel_size=(3, 3), stride=(1, 1), padding=(1, 1))
              (1): ReLU()
            )
          )
          (3): RDB_Conv(
            (conv): Sequential(
              (0): Conv2d(40, 8, kernel_size=(3, 3), stride=(1, 1), padding=(1, 1))
              (1): ReLU()
            )
          )
        )
        (LFF): Conv2d(48, 16, kernel_size=(1, 1), stride=(1, 1))
      )
    )
    (UPNet): Sequential(
      (0): Conv2d(16, 16, kernel_size=(3, 3), stride=(1, 1), padding=(1, 1))
      (1): Conv2d(16, 3, kernel_size=(3, 3), stride=(1, 1), padding=(1, 1))
    )
    (UPNet2): Sequential(
      (0): Conv2d(16, 16, kernel_size=(3, 3), stride=(1, 1), padding=(1, 1))
      (1): Conv2d(16, 3, kernel_size=(3, 3), stride=(1, 1), padding=(1, 1))
    )
    (UPNet4): Sequential(
      (0): Conv2d(32, 16, kernel_size=(3, 3), stride=(1, 1), padding=(1, 1))
      (1): Conv2d(16, 3, kernel_size=(3, 3), stride=(1, 1), padding=(1, 1))
    )
    (Down1): Conv2d(16, 16, kernel_size=(3, 3), stride=(2, 2), padding=(1, 1))
    (Down2): Conv2d(16, 32, kernel_size=(3, 3), stride=(2, 2), padding=(1, 1))
    (Up1): ConvTranspose2d(16, 16, kernel_size=(4, 4), stride=(2, 2), padding=(1, 1))
    (Up2): ConvTranspose2d(32, 16, kernel_size=(4, 4), stride=(2, 2), padding=(1, 1))
    (Relu): ReLU()
    (Img_up): Upsample(scale_factor=2.0, mode='bilinear')
  )
  (recur3): DRBN_BU(
    (SFENet1): Conv2d(6, 16, kernel_size=(3, 3), stride=(1, 1), padding=(1, 1))
    (SFENet2): Conv2d(16, 16, kernel_size=(3, 3), stride=(1, 1), padding=(1, 1))
    (RDBs): ModuleList(
      (0-1): 2 x RDB(
        (convs): Sequential(
          (0): RDB_Conv(
            (conv): Sequential(
              (0): Conv2d(16, 8, kernel_size=(3, 3), stride=(1, 1), padding=(1, 1))
              (1): ReLU()
            )
          )
          (1): RDB_Conv(
            (conv): Sequential(
              (0): Conv2d(24, 8, kernel_size=(3, 3), stride=(1, 1), padding=(1, 1))
              (1): ReLU()
            )
          )
          (2): RDB_Conv(
            (conv): Sequential(
              (0): Conv2d(32, 8, kernel_size=(3, 3), stride=(1, 1), padding=(1, 1))
              (1): ReLU()
            )
          )
          (3): RDB_Conv(
            (conv): Sequential(
              (0): Conv2d(40, 8, kernel_size=(3, 3), stride=(1, 1), padding=(1, 1))
              (1): ReLU()
            )
          )
        )
        (LFF): Conv2d(48, 16, kernel_size=(1, 1), stride=(1, 1))
      )
      (2-3): 2 x RDB(
        (convs): Sequential(
          (0): RDB_Conv(
            (conv): Sequential(
              (0): Conv2d(32, 16, kernel_size=(3, 3), stride=(1, 1), padding=(1, 1))
              (1): ReLU()
            )
          )
          (1): RDB_Conv(
            (conv): Sequential(
              (0): Conv2d(48, 16, kernel_size=(3, 3), stride=(1, 1), padding=(1, 1))
              (1): ReLU()
            )
          )
          (2): RDB_Conv(
            (conv): Sequential(
              (0): Conv2d(64, 16, kernel_size=(3, 3), stride=(1, 1), padding=(1, 1))
              (1): ReLU()
            )
          )
          (3): RDB_Conv(
            (conv): Sequential(
              (0): Conv2d(80, 16, kernel_size=(3, 3), stride=(1, 1), padding=(1, 1))
              (1): ReLU()
            )
          )
        )
        (LFF): Conv2d(96, 32, kernel_size=(1, 1), stride=(1, 1))
      )
      (4-5): 2 x RDB(
        (convs): Sequential(
          (0): RDB_Conv(
            (conv): Sequential(
              (0): Conv2d(16, 8, kernel_size=(3, 3), stride=(1, 1), padding=(1, 1))
              (1): ReLU()
            )
          )
          (1): RDB_Conv(
            (conv): Sequential(
              (0): Conv2d(24, 8, kernel_size=(3, 3), stride=(1, 1), padding=(1, 1))
              (1): ReLU()
            )
          )
          (2): RDB_Conv(
            (conv): Sequential(
              (0): Conv2d(32, 8, kernel_size=(3, 3), stride=(1, 1), padding=(1, 1))
              (1): ReLU()
            )
          )
          (3): RDB_Conv(
            (conv): Sequential(
              (0): Conv2d(40, 8, kernel_size=(3, 3), stride=(1, 1), padding=(1, 1))
              (1): ReLU()
            )
          )
        )
        (LFF): Conv2d(48, 16, kernel_size=(1, 1), stride=(1, 1))
      )
    )
    (UPNet): Sequential(
      (0): Conv2d(16, 16, kernel_size=(3, 3), stride=(1, 1), padding=(1, 1))
      (1): Conv2d(16, 3, kernel_size=(3, 3), stride=(1, 1), padding=(1, 1))
    )
    (UPNet2): Sequential(
      (0): Conv2d(16, 16, kernel_size=(3, 3), stride=(1, 1), padding=(1, 1))
      (1): Conv2d(16, 3, kernel_size=(3, 3), stride=(1, 1), padding=(1, 1))
    )
    (UPNet4): Sequential(
      (0): Conv2d(32, 16, kernel_size=(3, 3), stride=(1, 1), padding=(1, 1))
      (1): Conv2d(16, 3, kernel_size=(3, 3), stride=(1, 1), padding=(1, 1))
    )
    (Down1): Conv2d(16, 16, kernel_size=(3, 3), stride=(2, 2), padding=(1, 1))
    (Down2): Conv2d(16, 32, kernel_size=(3, 3), stride=(2, 2), padding=(1, 1))
    (Up1): ConvTranspose2d(16, 16, kernel_size=(4, 4), stride=(2, 2), padding=(1, 1))
    (Up2): ConvTranspose2d(32, 16, kernel_size=(4, 4), stride=(2, 2), padding=(1, 1))
    (Relu): ReLU()
    (Img_up): Upsample(scale_factor=2.0, mode='bilinear')
  )
  (recur4): DRBN_BU(
    (SFENet1): Conv2d(6, 16, kernel_size=(3, 3), stride=(1, 1), padding=(1, 1))
    (SFENet2): Conv2d(16, 16, kernel_size=(3, 3), stride=(1, 1), padding=(1, 1))
    (RDBs): ModuleList(
      (0-1): 2 x RDB(
        (convs): Sequential(
          (0): RDB_Conv(
            (conv): Sequential(
              (0): Conv2d(16, 8, kernel_size=(3, 3), stride=(1, 1), padding=(1, 1))
              (1): ReLU()
            )
          )
          (1): RDB_Conv(
            (conv): Sequential(
              (0): Conv2d(24, 8, kernel_size=(3, 3), stride=(1, 1), padding=(1, 1))
              (1): ReLU()
            )
          )
          (2): RDB_Conv(
            (conv): Sequential(
              (0): Conv2d(32, 8, kernel_size=(3, 3), stride=(1, 1), padding=(1, 1))
              (1): ReLU()
            )
          )
          (3): RDB_Conv(
            (conv): Sequential(
              (0): Conv2d(40, 8, kernel_size=(3, 3), stride=(1, 1), padding=(1, 1))
              (1): ReLU()
            )
          )
        )
        (LFF): Conv2d(48, 16, kernel_size=(1, 1), stride=(1, 1))
      )
      (2-3): 2 x RDB(
        (convs): Sequential(
          (0): RDB_Conv(
            (conv): Sequential(
              (0): Conv2d(32, 16, kernel_size=(3, 3), stride=(1, 1), padding=(1, 1))
              (1): ReLU()
            )
          )
          (1): RDB_Conv(
            (conv): Sequential(
              (0): Conv2d(48, 16, kernel_size=(3, 3), stride=(1, 1), padding=(1, 1))
              (1): ReLU()
            )
          )
          (2): RDB_Conv(
            (conv): Sequential(
              (0): Conv2d(64, 16, kernel_size=(3, 3), stride=(1, 1), padding=(1, 1))
              (1): ReLU()
            )
          )
          (3): RDB_Conv(
            (conv): Sequential(
              (0): Conv2d(80, 16, kernel_size=(3, 3), stride=(1, 1), padding=(1, 1))
              (1): ReLU()
            )
          )
        )
        (LFF): Conv2d(96, 32, kernel_size=(1, 1), stride=(1, 1))
      )
      (4-5): 2 x RDB(
        (convs): Sequential(
          (0): RDB_Conv(
            (conv): Sequential(
              (0): Conv2d(16, 8, kernel_size=(3, 3), stride=(1, 1), padding=(1, 1))
              (1): ReLU()
            )
          )
          (1): RDB_Conv(
            (conv): Sequential(
              (0): Conv2d(24, 8, kernel_size=(3, 3), stride=(1, 1), padding=(1, 1))
              (1): ReLU()
            )
          )
          (2): RDB_Conv(
            (conv): Sequential(
              (0): Conv2d(32, 8, kernel_size=(3, 3), stride=(1, 1), padding=(1, 1))
              (1): ReLU()
            )
          )
          (3): RDB_Conv(
            (conv): Sequential(
              (0): Conv2d(40, 8, kernel_size=(3, 3), stride=(1, 1), padding=(1, 1))
              (1): ReLU()
            )
          )
        )
        (LFF): Conv2d(48, 16, kernel_size=(1, 1), stride=(1, 1))
      )
    )
    (UPNet): Sequential(
      (0): Conv2d(16, 16, kernel_size=(3, 3), stride=(1, 1), padding=(1, 1))
      (1): Conv2d(16, 3, kernel_size=(3, 3), stride=(1, 1), padding=(1, 1))
    )
    (UPNet2): Sequential(
      (0): Conv2d(16, 16, kernel_size=(3, 3), stride=(1, 1), padding=(1, 1))
      (1): Conv2d(16, 3, kernel_size=(3, 3), stride=(1, 1), padding=(1, 1))
    )
    (UPNet4): Sequential(
      (0): Conv2d(32, 16, kernel_size=(3, 3), stride=(1, 1), padding=(1, 1))
      (1): Conv2d(16, 3, kernel_size=(3, 3), stride=(1, 1), padding=(1, 1))
    )
    (Down1): Conv2d(16, 16, kernel_size=(3, 3), stride=(2, 2), padding=(1, 1))
    (Down2): Conv2d(16, 32, kernel_size=(3, 3), stride=(2, 2), padding=(1, 1))
    (Up1): ConvTranspose2d(16, 16, kernel_size=(4, 4), stride=(2, 2), padding=(1, 1))
    (Up2): ConvTranspose2d(32, 16, kernel_size=(4, 4), stride=(2, 2), padding=(1, 1))
    (Relu): ReLU()
    (Img_up): Upsample(scale_factor=2.0, mode='bilinear')
    (fuseblk_1): TransformerBlock(
      (conv1): Conv2d(96, 32, kernel_size=(1, 1), stride=(1, 1))
      (norm1): LayerNorm(
        (body): WithBias_LayerNorm()
      )
      (attn): Attention(
        (kv): Conv2d(32, 64, kernel_size=(1, 1), stride=(1, 1), bias=False)
        (kv_dwconv): Conv2d(64, 64, kernel_size=(3, 3), stride=(1, 1), padding=(1, 1), groups=64, bias=False)
        (q): Conv2d(32, 32, kernel_size=(1, 1), stride=(1, 1), bias=False)
        (q_dwconv): Conv2d(32, 32, kernel_size=(3, 3), stride=(1, 1), padding=(1, 1), bias=False)
        (project_out): Conv2d(32, 32, kernel_size=(1, 1), stride=(1, 1), bias=False)
      )
      (norm2): LayerNorm(
        (body): WithBias_LayerNorm()
      )
      (ffn): FeedForward(
        (gelu): GELU()
        (project_in): Conv2d(32, 170, kernel_size=(1, 1), stride=(1, 1), bias=False)
        (dwconv): Conv2d(170, 170, kernel_size=(3, 3), stride=(1, 1), padding=(1, 1), groups=170, bias=False)
        (project_out): Conv2d(85, 32, kernel_size=(1, 1), stride=(1, 1), bias=False)
      )
    )
    (fuseblk_2): TransformerBlock(
      (conv1): Conv2d(48, 16, kernel_size=(1, 1), stride=(1, 1))
      (norm1): LayerNorm(
        (body): WithBias_LayerNorm()
      )
      (attn): Attention(
        (kv): Conv2d(16, 32, kernel_size=(1, 1), stride=(1, 1), bias=False)
        (kv_dwconv): Conv2d(32, 32, kernel_size=(3, 3), stride=(1, 1), padding=(1, 1), groups=32, bias=False)
        (q): Conv2d(16, 16, kernel_size=(1, 1), stride=(1, 1), bias=False)
        (q_dwconv): Conv2d(16, 16, kernel_size=(3, 3), stride=(1, 1), padding=(1, 1), bias=False)
        (project_out): Conv2d(16, 16, kernel_size=(1, 1), stride=(1, 1), bias=False)
      )
      (norm2): LayerNorm(
        (body): WithBias_LayerNorm()
      )
      (ffn): FeedForward(
        (gelu): GELU()
        (project_in): Conv2d(16, 84, kernel_size=(1, 1), stride=(1, 1), bias=False)
        (dwconv): Conv2d(84, 84, kernel_size=(3, 3), stride=(1, 1), padding=(1, 1), groups=84, bias=False)
        (project_out): Conv2d(42, 16, kernel_size=(1, 1), stride=(1, 1), bias=False)
      )
    )
    (fuseblk_3): TransformerBlock(
      (conv1): Conv2d(59, 16, kernel_size=(1, 1), stride=(1, 1))
      (norm1): LayerNorm(
        (body): WithBias_LayerNorm()
      )
      (attn): Attention(
        (kv): Conv2d(16, 32, kernel_size=(1, 1), stride=(1, 1), bias=False)
        (kv_dwconv): Conv2d(32, 32, kernel_size=(3, 3), stride=(1, 1), padding=(1, 1), groups=32, bias=False)
        (q): Conv2d(16, 16, kernel_size=(1, 1), stride=(1, 1), bias=False)
        (q_dwconv): Conv2d(16, 16, kernel_size=(3, 3), stride=(1, 1), padding=(1, 1), bias=False)
        (project_out): Conv2d(16, 16, kernel_size=(1, 1), stride=(1, 1), bias=False)
      )
      (norm2): LayerNorm(
        (body): WithBias_LayerNorm()
      )
      (ffn): FeedForward(
        (gelu): GELU()
        (project_in): Conv2d(16, 84, kernel_size=(1, 1), stride=(1, 1), bias=False)
        (dwconv): Conv2d(84, 84, kernel_size=(3, 3), stride=(1, 1), padding=(1, 1), groups=84, bias=False)
        (project_out): Conv2d(42, 16, kernel_size=(1, 1), stride=(1, 1), bias=False)
      )
    )
  )
)
[Epoch 2]	Learning rate: 1.00e-4
[16/555]	0.024601556360721588	-0.001038823975250125	6.868225318612531e-05	0.0	D: 0.24880507588386536	G: 0.2557169795036316	3.5+2.1s
[400/555]	-0.7049516439437866	-0.7309777736663818	7.539454236393794e-05	1.106242060661316	D: 0.2502998411655426	G: 0.25950753688812256	50.7+1.4s

Evaluation:
[LowLightTest x4]	PSNR: 9.971 (Best: 9.971 @epoch 1)
…
